…
pool_kernel_size)\n            - reduce_by)\n        self.classifier = nn.Sequential(\n            nn.Linear(960 * self.n_channels, n_genomic_features),\n            nn.ReLU(inplace=True),\n            nn.Linear(n_genomic_features, n_genomic_features),\n            nn.Sigmoid()\n        )\n\n    def forward(self, x):\n        \"\"\"Forward propagation of a batch.\n        \"\"\"\n        out = self.conv_net(x)\n        reshape_out = out.view(out.size(0), 960 * self.n_channels)\n        predict = self.classifier(reshape_out)\n        return predict\n\nDeepSEA(\n  (conv_net): Sequential(\n    (0): Conv1d(4, 320, kernel_size=(8,), stride=(1,))\n    (1): ReLU(inplace=True)\n    (2): MaxPool1d(kernel_size=4, stride=4, padding=0, dilation=1, ceil_mode=False)\n    (3): Dropout(p=0.2, inplace=False)\n    (4): Conv1d(320, 480, kernel_size=(8,), stride=(1,))\n    (5): ReLU(inplace=True)\n    (6): MaxPool1d(kernel_size=4, stride=4, padding=0, dilation=1, ceil_mode=False)\n    (7): Dropout(p=0.2, inplace=False)\n    (8): Conv1d(480, 960, kernel_size=(8,), stride=(1,))\n    (9): ReLU(inplace=True)\n    (10): Dropout(p=0.5, inplace=False)\n  )\n  (classifier): Sequential(\n    (0): Linear(in_features=21120, out_features=2, bias=True)\n    (1): ReLU(inplace=True)\n    (2): Linear(in_features=2, out_features=2, bias=True)\n    (3): Sigmoid()\n  )\n)\nConv_net\n（0）一维卷积层 Conv1d\nhttps://pytorch.org/docs/stable/generated/torch.nn.Conv1d.html?highlight=conv1d#torch.nn.Conv1d\nclass torch.nn.Conv1d(in_channels, out_channels, kernel_size, stride=1, padding=0, dilation=1, groups=1, bias=True)\n\n\nin_channels(int) – 输入信号的通道。在文本分类中，即为词向量的维度\nout_channels(int) – 卷积产生的通道。有多少个out_chan
…
.cpu().data,output.cpu().data.numpy()\n\n    def test_on_batch(self, seq_batch):\n        self.forward_fn.eval()\n        seq_batch  = Variable(torch.Tensor(seq_batch))\n        if self.use_gpu: seq_batch = seq_batch.cuda()\n        output = self.forward_fn(seq_batch)\n        pred = output.cpu().data.numpy()\n        return pred\n\n    def save_model(self, path):\n        torch.save(self.forward_fn.state_dict(), path)\n\n\n    def load_model(self, path):\n        self.forward_fn.load_state_dict(torch.load(path))\n\nNetDeepHistone(\n  (seq_map): ModuleDense(\n    (conv1): Sequential(\n      (0): Conv2d(1, 128, kernel_size=(4, 9), stride=(1, 1), padding=(0, 4))\n    )\n    (block1): DenseBlock(\n      (layer): Sequential(\n        (0): BasicBlock(\n          (block): Sequential(\n            (0): BatchNorm2d(128, eps=1e-05, momentum=0.1, affine=True, track_running_stats=True)\n            (1): ReLU()\n            (2): Conv2d(128, 128, kernel_size=(1, 9), stride=(1, 1), padding=(0, 4))\n          )\n        )\n        (1): BasicBlock(\n          (block): Sequential(\n            (0): BatchNorm2d(256, eps=1e-05, momentum=0.1, affine=True, track_running_stats=True)\n            (1): ReLU()\n            (2): Conv2d(256, 128, kernel_size=(1, 9), stride=(1, 1), padding=(0, 4))\n          )\n        )\n        (2): BasicBlock(\n          (block): Sequential(\n            (0): BatchNorm2d(384, eps=1e-05, momentum=0.1, affine=True, track_running_stats=True)\n            (1): ReLU()\n            (2): Conv2d(384, 128, kernel_size=(1, 9), stride=(1, 1), padding=(0, 4))\n          )\n        )\n      )\n    )\n    (trans1): Sequential(\n      (0): BatchNorm2d(512, eps=1e-05, momentum=0.1, affine=True, track_running_stats=True)\n      (1): ReLU()\n      (2): Conv2d(512, 256, kernel_size=(1, 1), stride=(1, 1))\n      (3): MaxPool2d(kernel_size=(1, 4), stride=(1, 4), padding=0, dilation=1, ceil_mode=False)\n    )\n    (block2): DenseBlock(\n      (layer): Sequential(\n        (0): BasicBlock(\n          (block): Sequential(\n            (0): BatchNorm2d(256, eps=1e-05, momentum=0.1, affine=True, track_running_stats=True)\n            (1): ReLU()\n            (2): Conv2d(256, 256, kernel_size=(1, 9), stride=(1, 1), padding=(0, 4))\n          )\n        )\n        (1): BasicBlock(\n          (block): Sequential(\n            (0): BatchNorm2d(512, eps=1e-05, momentum=0.1, affine=True, track_running_stats=True)\n            (1): ReLU()\n            (2): Conv2d(512, 256, kernel_size=(1, 9), stride=(1, 1), padding=(0, 4))\n          )\n        )\n        (2): BasicBlock(\n          (block): Sequential(\n            (0): BatchNorm2d(768, eps=1e-05, momentum=0.1, affine=True, track_running_stats=True)\n            (1): ReLU()\n            (2): Conv2d(768, 256, kernel_size=(1, 9), stride=(1, 1), padding=(0, 4))\n          )\n        )\n      )\n    )\n    (trans2): Sequential(\n      (0): BatchNorm2d(1024, eps=1e-05, momentum=0.1, affine=True, track_running_stats=True)\n      (1): ReLU()\n      (2): Conv2d(1024, 512, kernel_size=(1, 1), stride=(1, 1))\n      (3): MaxPool2d(kernel_size=(1, 4), stride=(1, 4), padding=0, dilation=1, ceil_mode=False)\n    )\n  )\n  (linear_map): Sequential(\n    (0): Dropout(p=0.5, inplace=False)\n    (1): Linear(in_features=15872, out_features=925, bias=True)\n    (2): BatchNorm1d(925, eps=1e-05, momentum=0.1, affine=True, track_running_stats=True)\n    (3): ReLU()\n    (4): Linear(in_features=925, out_features=5, bias=True)\n    (5): Sigmoid()\n  )\n)\nseq_map\n二维卷积层 conv2d\nclass   torch.nn.Conv2d(in_channels,out_channels,kernel_size,stride=1,padding=0,dilation=1,groups=,bias=True,padding_mode='zero')\n\n\nin_channels:就是输入的四维张量[N, C, H, W]中的C了，即输入张量的channels数。这个形参是确定权重等可学习参数的shape所必需的。\n\nout_channels:也很好理解，即期望的四维输出张量的channels数，不再多说。\n\nkernel_size:卷积核的大小，一般我们会使用5x5、3x3这种左
…
