…
pout(p=0.5)) reduce_by = conv_kernel_size - 1 self.n_channels = int( np.floor( (np.floor( (sequence_length - reduce_by) / pool_kernel_size) - reduce_by) / pool_kernel_size) - reduce_by) self.classifier = nn.Sequential( nn.Linear(960 * self.n_channels, n_genomic_features), nn.ReLU(inplace=True), nn.Linear(n_genomic_features, n_genomic_features), nn.Sigmoid() ) def forward(self, x): \"\"\"Forward propagation of a batch. \"\"\" out = self.conv_net(x) reshape_out = out.view(out.size(0), 960 * self.n_channels) predict = self.classifier(reshape_out) return predict DeepSEA( (conv_net): Sequential( (0): Conv1d(4, 320, kernel_size=(8,), stride=(1,)) (1): ReLU(inplace=True) (2): MaxPool1d(kernel_size=4, stride=4, padding=0, dilation=1, ceil_mode=False) (3): Dropout(p=0.2, inplace=False) (4): Conv1d(320, 480, kernel_size=(8,), stride=(1,)) (5): ReLU(inplace=True) (6): MaxPool1d(kernel_size=4, stride=4, padding=0, dilation=1, ceil_mode=False) (7): Dropout(p=0.2, inplace=False) (8): Conv1d(480, 960, kernel_size=(8,), stride=(1,)) (9): ReLU(inplace=True) (10): Dropout(p=0.5, inplace=False) ) (classifier): Sequential( (0): Linear(in_features=21120, out_features=2, bias=True) (1): ReLU(inplace=True) (2): Linear(in_features=2, out_features=2, bias=True) (3): Sigmoid() ) ) Conv_net （0）一维卷积层 Conv1d https://pytorch.org/docs/stable/generated/torch.nn.Conv1d.html?highlight=conv1d#torch.nn.Conv1d class torch.nn.Conv1d(in_channels, out_channels, kernel_size, stride=1, padding=0, dilation=1, groups=1, bias=True) in_channels(int) – 输入信号的通道。在文本分类中，即为词向量的维度 out_channels(int) – 卷积产生的通道。有多少个out_channels，就需要多少个1维卷积 ker
…
h.cuda(), lab_batch.cuda() output = self.forward_fn(seq_batch) loss = self.criterion(output,lab_batch) return loss.cpu().data,output.cpu().data.numpy() def test_on_batch(self, seq_batch): self.forward_fn.eval() seq_batch = Variable(torch.Tensor(seq_batch)) if self.use_gpu: seq_batch = seq_batch.cuda() output = self.forward_fn(seq_batch) pred = output.cpu().data.numpy() return pred def save_model(self, path): torch.save(self.forward_fn.state_dict(), path) def load_model(self, path): self.forward_fn.load_state_dict(torch.load(path)) NetDeepHistone( (seq_map): ModuleDense( (conv1): Sequential( (0): Conv2d(1, 128, kernel_size=(4, 9), stride=(1, 1), padding=(0, 4)) ) (block1): DenseBlock( (layer): Sequential( (0): BasicBlock( (block): Sequential( (0): BatchNorm2d(128, eps=1e-05, momentum=0.1, affine=True, track_running_stats=True) (1): ReLU() (2): Conv2d(128, 128, kernel_size=(1, 9), stride=(1, 1), padding=(0, 4)) ) ) (1): BasicBlock( (block): Sequential( (0): BatchNorm2d(256, eps=1e-05, momentum=0.1, affine=True, track_running_stats=True) (1): ReLU() (2): Conv2d(256, 128, kernel_size=(1, 9), stride=(1, 1), padding=(0, 4)) ) ) (2): BasicBlock( (block): Sequential( (0): BatchNorm2d(384, eps=1e-05, momentum=0.1, affine=True, track_running_stats=True) (1): ReLU() (2): Conv2d(384, 128, kernel_size=(1, 9), stride=(1, 1), padding=(0, 4)) ) ) ) ) (trans1): Sequential( (0): BatchNorm2d(512, eps=1e-05, momentum=0.1, affine=True, track_running_stats=True) (1): ReLU() (2): Conv2d(512, 256, kernel_size=(1, 1), stride=(1, 1)) (3): MaxPool2d(kernel_size=(1, 4), stride=(1, 4), padding=0, dilation=1, ceil_mode=False) ) (block2): DenseBlock( (layer): Sequential( (0): BasicBlock( (block): Sequential( (0): BatchNorm2d(256, eps=1e-05, momentum=0.1, affine=True, track_running_stats=True) (1): ReLU() (2): Conv2d(256, 256, kernel_size=(1, 9), stride=(1, 1), padding=(0, 4)) ) ) (1): BasicBlock( (block): Sequential( (0): BatchNorm2d(512, eps=1e-05, momentum=0.1, affine=True, track_running_stats=True) (1): ReLU() (2): Conv2d(512, 256, kernel_size=(1, 9), stride=(1, 1), padding=(0, 4)) ) ) (2): BasicBlock( (block): Sequential( (0): BatchNorm2d(768, eps=1e-05, momentum=0.1, affine=True, track_running_stats=True) (1): ReLU() (2): Conv2d(768, 256, kernel_size=(1, 9), stride=(1, 1), padding=(0, 4)) ) ) ) ) (trans2): Sequential( (0): BatchNorm2d(1024, eps=1e-05, momentum=0.1, affine=True, track_running_stats=True) (1): ReLU() (2): Conv2d(1024, 512, kernel_size=(1, 1), stride=(1, 1)) (3): MaxPool2d(kernel_size=(1, 4), stride=(1, 4), padding=0, dilation=1, ceil_mode=False) ) ) (linear_map): Sequential( (0): Dropout(p=0.5, inplace=False) (1): Linear(in_features=15872, out_features=925, bias=True) (2): BatchNorm1d(925, eps=1e-05, momentum=0.1, affine=True, track_running_stats=True) (3): ReLU() (4): Linear(in_features=925, out_features=5, bias=True) (5): Sigmoid() ) ) seq_map 二维卷积层 conv2d class torch.nn.Conv2d(in_channels,out_channels,kernel_size,stride=1,padding=0,dilation=1,groups=,bias=True,padding_mode='zero') in_channels:就是输入的四维张量[N, C, H, W]中的C了，即输入张量的channels数。这个形参是确定权重等可学习参数的shape所必需的。 out_channels:也很好理解，即期望的四维输出张量的channels数，不再多说。 kernel_size:卷积核的大小，一般我们会使用5x5、3x3这种左右两个数相同的卷积核，因此这种情况只需要写kern
…
